crypto_agent_model.pth (torch, 12406 bytes, 5 tensors)

fc1.weight f4 [64, 4]
00000000: 7b7e 9e3e f03f 853b e970 df3e 07fa fa3e
00000010: fc17 89be fe8f ef3e cca1 a0be 0806 7c3e
00000020: dffa f63e d90d d7bd 6b3c 913e 8df9 d03e
00000030: 9905 3e3e eb13 be3e cbe5 e0bd 0fdf a9be
00000040: d8c0 65be 8ed3 98be 4881 2dbe 409a a83c
00000050: f628 dcbe ba12 b1be 4ecf fcbe 86fa e5be
00000060: 3789 f43e 2b89 da3e b59d f4be b9df f8bc
00000070: fe21 933e cea9 12be caa2 0a3e e2c5 af3e
00000080: 687c 373e 2a8e ffbe 74e8 8dbe 7478 71be
00000090: 4714 bc3e da9b 2abe 36b8 4a3e d1c9 f83e
000000a0: 0c66 f3be 885a ef3e 6c3f a93e 8096 98bc
000000b0: 2495 42be 80d6 a9be 6244 fcbe 6ca2 5c3e
000000c0: 16cd 413e dea9 42be 23f3 29be aea9 b8be
000000d0: b0e2 fcbd d67f f43e d83c 2abe fc84 e1be
000000e0: 1267 b8be 08be f6be a089 d4bc b087 87bd
000000f0: 0086 0f3c 046d afbe 5855 c7be eeac bc3e
00000100: c48b 9ebe d079 44be a49e 3fbe 009f c0be
00000110: 10af 3d3e 30e8 05be c060 d4be 6899 043e
00000120: 7aec 9dbe 9c70 ddbe c4a0 113e cc10 943e
00000130: 2464 473e 1043 f73d a315 9d3d 9083 f0be
00000140: b885 eb3e a867 d5be 721b 9f3e d0a0 bd3e
00000150: 08e2 f4be e03b 7bbe fedb ea3e 60c7 6ebe
00000160: 128e 2b3d e3e3 df3e 11d0 d73e 145e 66be
00000170: 5bc8 453d bb72 113e f1de 013f 1ca1 c03e
00000180: 63d6 28be e173 ecbe 094d 013f b1f0 17be
00000190: 7672 f43e 0c15 f7bd c48f d73e b811 35bd
000001a0: 7a7c 633e 8cf3 abbe d6b7 ed3e 6468 71bd
000001b0: 026a 9e3e b696 e1be 4e1a a0be b8b4 db3d
000001c0: 08f3 e1be 3c04 d23e e075 d5bc e0b0 4f3d
000001d0: c7d7 86bb d747 20be 78d4 bf3e 8afd c6be
000001e0: 642e 4b3c 588c 39bd 2774 bd3d ffb0 e2bd
000001f0: 5c98 9bbe eeb4 9dbe 1c35 463e 1ef4 fabe
00000200: 8838 a93d 6091 dcbe 32c6 bebe 86e3 a13e
00000210: a475 a73e 259d 3d3e 9998 c73d 1d26 903c
00000220: 483e 88be a02a 04be 04f9 813e ea44 e63e
00000230: 5c02 d03e f23b a9be 7e6a 44bb 61d1 79be
00000240: 9beb e83b f9a5 cc3e 5d58 cd3e a302 abbe
00000250: 3aa4 d4be e031 e53c dce6 89be 3cd1 c3be
00000260: 5efd 8cbe e490 3b3e 6ae6 a9be 80d6 383d
00000270: 8a3e f4be 56e4 c8be 0041 3a3e 4015 65bc
00000280: 0b4e 0ebd 6cb6 da3e 603d 4e3e fc76 fd3e
00000290: 1663 9fbe 783a 943e 48bb ef3e aecc bb3e
000002a0: 3e9d c8be 608b cebd 80d4 6b3e 4896 c23d
000002b0: b7e8 d23e 3bb2 f0be f421 5f3e aff6 ba3e
000002c0: bea6 8f3e e186 3c3e f3c4 2abe 7bda 203e
000002d0: e68d c0be 702b a63d a028 8abe bc53 73be
000002e0: 9eb8 c8be 420e 863e 5841 8fbd 64f7 d2be
000002f0: 5074 a9bd 3439 36be a0e3 04be 88c9 ebbd
00000300: 11fe c23e 13f1 bdbe 8cb6 60be a131 dd3e
00000310: b80a 903d e0a8 e5bc d283 dcbe c44a 543e
00000320: 344c 943e 24f6 bebe 5fd5 033e 1b6b 3cbd
00000330: 688c df3d f434 f93e c85d a1be e8d4 963e
00000340: cded d73e 862e 5abe 2938 883e 742d df3e
00000350: f832 ce3d 8ba2 de3b e824 833d fb83 653c
00000360: b837 b43d 40e3 1f3c c024 cebd 2891 41be
00000370: 6a7c a0be 8ec3 c13e f08a 48be 18f0 783e
00000380: efbd c93e f55b b0be 7399 013f 237a ac3e
00000390: cb5f 443d 0269 7b3e 5792 45bb 24a2 fd3d
000003a0: 028d 293e 8732 61bd 96e4 0dbe 73eb aabd
000003b0: 6a8a de3e 8d4a 37be b32f 433e 86e5 b63d
000003c0: 3502 403d 0523 5d3e 8131 ce3e f34c 8dbe
000003d0: f006 bdbc 7838 b3be 6e5f 853e 5ebe 033e
000003e0: 88ca b3bd 307b 41bd 00b6 0c3b 907b c7bd
000003f0: 40da f1be c0eb b53e 345c 073e c006 eb3d
0.30955872 0.00406646 0.4364083 0.4901888 -0.2677611 0.46789545 -0.3137344 0.24611676
0.48238274 -0.10500688 0.28366408 0.40815392 0.18556823 0.3712457 -0.109813295 -0.33177993
-0.22436845 -0.29848903 -0.16943848 0.020581365 -0.43 -0.345846 -0.4937691 -0.44917697
0.47760937 0.42682776 -0.4777657 -0.030380117 0.2873687 -0.14322588 0.13538662 0.3433066
0.17918551 -0.4991315 -0.2771641 -0.23581105 0.3673422 -0.16661015 0.19796833 0.48591474
-0.47538793 0.46748757 0.330562 -0.018626451 -0.19002205 -0.33171463 -0.49270922 0.21546334
0.1892589 -0.19010112 -0.16596656 -0.36066955 -0.12347925 0.4775378 -0.16624773 -0.44046772
-0.36016136 -0.48191857 -0.025944531 -0.06617677 0.008759975 -0.3426286 -0.389323 0.36850685
-0.30966008 -0.19187093 -0.1871286 -0.37621307 0.18523812 -0.13076854 -0.41480064 0.12949145
-0.3084448 -0.43249977 0.14221483 0.28919065 0.19471794 0.12073338 0.076701425 -0.46975374
0.46000457 -0.41680646 0.31075627 0.37036753 -0.47828698 -0.24534559 0.45870966 -0.23318243
0.041883536 0.4372855 0.4215093 -0.22496825 0.048286777 0.14203922 0.50730807 0.37622917
-0.16488032 -0.4618216 0.5050817 -0.1483791 0.47743577 -0.12064561 0.42101872 -0.04420635
0.22215453 -0.3358425 0.46429318 -0.058937445 0.30940253 -0.44060296 -0.3127007 0.10727829
-0.4413073 0.41018856 -0.026057184 0.05070579 -0.004115078 -0.15652405 0.37466788 -0.3886531
0.012401197 -0.045299858 0.0925067 -0.110689156 -0.30389678 -0.308021 0.19356197 -0.49014372
0.082627356 -0.43079662 -0.37260586 0.316189 0.3270694 0.18516977 0.097459026 0.017596299
-0.26610017 -0.12906885 0.25385296 0.44974452 0.406268 -0.33053547 -0.00299707 -0.24396278
0.0071081645 0.39970377 0.40106478 -0.3340045 -0.41531545 0.027977884 -0.26933944 -0.3824557
-0.27537054 0.1831699 -0.33183604 0.04512644 -0.47703964 -0.39236706 0.18188858 -0.013982117
-0.034742396 0.42717302 0.201406 0.4950484 -0.31130284 0.28950858 0.46822572 0.36679596
-0.39182466 -0.100851774 0.23030281 0.0950132 0.41193172 -0.4701098 0.21790296 0.3651633
0.28056902 0.18410827 -0.16676693 0.15708344 -0.3760826 0.08113754 -0.2698412 -0.23762411
-0.39203352 0.26182753 -0.06994885 -0.4120437 -0.08274138 -0.17795259 -0.12977457 -0.115130484
0.38084462 -0.37097988 -0.21944636 0.43201926 0.070332944 -0.028034627 -0.4306932 0.20731646
0.28964388 -0.37297165 0.12874363 -0.04600058 0.10915452 0.48673213 -0.31516862 0.2945931
0.42173615 -0.2130681 0.26605347 0.43589365 0.10068315 0.006794279 0.06403524 0.014008517
0.0879969 0.0097587705 -0.10065603 -0.18903029 -0.3134492 0.3784451 -0.1958425 0.24310338
0.3940272 -0.34445158 0.5062477 0.33686933 0.047942918 0.24551776 -0.003014704 0.123844415
0.16557696 -0.054979827 -0.1385673 -0.083456896 0.43464977 -0.17899533 0.19061165 0.08930497
0.046877105 0.2159539 0.40272143 -0.2759777 -0.023074597 -0.3500402 0.2604937 0.12865588
-0.08778864 -0.04723662 0.0021470785 -0.097403646 -0.47236824 0.35531425 0.13218766 0.11475897

fc1.bias f4 [64]
00000000: 3791 8e3e 40ee d43d edb8 00bd 751c d4be
00000010: 006e 053b 8e05 bdbe a9cd 29be a613 013e
00000020: 30bf bfbe 45cc a0be 527e d9be 023b ffbe
00000030: be51 8cbe 80ac 83bb 3006 4fbe dc4e 53be
00000040: 20a3 6dbd 74de 853e 74b3 35be c80c f3be
00000050: f8cd b63e 2c3f 533e 3c40 57be dc30 853e
00000060: 41ca edbe 5233 a03e 344c dd3e bc74 d63e
00000070: a462 60be 56f2 cdbe d374 bb3e 62b4 ab3e
00000080: eed4 953e a4c6 d03c e85e e8be b687 c73e
00000090: 8b99 9f3d 12f8 cabe e006 903c 2afa 9e3e
000000a0: 1631 92bd ee8f e33e 8437 403e 31aa 93be
000000b0: 06f3 803e 8ef7 cb3e 2812 adbe 5e4b 9abe
000000c0: fd31 c73e 70e2 8a3e 2b23 babd 28f0 f5bd
000000d0: d6ea eb3e ec02 4d3e 262b 913e 9081 d3bd
000000e0: 8b8b 2fbe 13b7 e0be 82ed 7fbe b016 8bbe
000000f0: d317 a7bb 0ef8 a7be 6c4c 4e3e b8f6 853e
0.27845165 0.10397005 -0.03142636 -0.4142796 0.0020359755 -0.369183 -0.1658236 0.12605152
-0.37450552 -0.31405845 -0.42479187 -0.49849707 -0.27406114 -0.0040183663 -0.20217204 -0.20635551
-0.058016896 0.2614628 -0.17744237 -0.4747069 0.35704017 0.20629567 -0.21020597 0.2601384
-0.4644337 0.31289154 0.432222 0.41885936 -0.21912628 -0.4022395 0.36612567 0.3353606
0.29264015 0.025485344 -0.45384908 0.38970727 0.07792958 -0.39642388 0.017581403 0.31050235
-0.07138269 0.44445747 0.18771178 -0.28840783 0.25185412 0.39837307 -0.33802915 -0.30135626
0.38905326 0.27125883 -0.09088739 -0.12008697 0.46077603 0.20020646 0.28353232 -0.103274465
-0.17143075 -0.43889675 -0.24992946 -0.27165747 -0.0050992756 -0.32806438 0.2014634 0.26164794

fc2.weight f4 [32, 64]
00000000: 8094 f7bb 80c8 c93b 6270 803d 60ac 8c3b
00000010: 6a57 d0bd 6017 c93c a007 fc3c 2ca5 26bd
00000020: e0f4 6dbc d8af a7bd a894 413d 3028 d3bc
00000030: 8016 a4bc 08a9 113d e2dd f7bd 3e62 a23d
00000040: 7824 e5bd ce84 f13d e81f c83c 00c8 6cbb
00000050: dce0 f8bd 62c3 813d a0f4 30bc 6890 35bd
00000060: e05a 49bd f80a f8bd 70f7 e3bc 9c7b 2a3d
00000070: e02f 2a3d 7436 fb3d fef7 9ebd e80d f73d
00000080: 66c2 f83d 78be 76bd f81a 983d 000a a9ba
00000090: bab6 eb3d f014 9c3d b8ae d93c 9ea9 cabd
000000a0: 6417 1bbd 02a7 c93d 9449 25bd 5889 f73c
000000b0: 7651 9d3d c281 a1bd a09f 0cbc 401a 84bb
000000c0: 60fb 8b3b e041 a0bd 0065 4ebb 6866 f6bd
000000d0: 5072 ddbc 20c2 bbbd a855 f6bd ba86 d03d
000000e0: f0ba 59bd 00e1 20bd da69 b33d 1836 c9bd
000000f0: 60ea 3f3c f2cc d73d daba a2bd 2a73 d73d
00000100: 4016 b73b 60c3 223d d448 2c3d 7851 ef3d
00000110: d8e8 9a3c 38fd 8d3c cab0 ebbd 10a3 cd3d
00000120: ec4d 723d 6ac6 cf3d 3a0f a83d a481 9a3d
00000130: 02e0 f3bd a028 683d 9aa5 95bd 0c80 cd3d
00000140: 0c30 a83d 8c3a c33d c8ab 8b3c 86bf 9b3d
00000150: 0cea c0bd a487 84bd 524c cdbd 7c13 0c3d
00000160: a017 52bc 981e 223d 4acd cdbd ce16 d73d
00000170: 40b8 1b3c 1494 11bd 5260 cebd c04a 0ebd
00000180: 8a02 fcbd 5888 92bd 06ef f2bd 7063 d03c
00000190: 00d8 ea39 fc61 0fbd 0811 2e3d 2e70 e63d
000001a0: 90e2 693d 5402 c13d 504b 683d d029 32bc
000001b0: d4cc 5bbd 8008 7c3d f8a7 ffbd 7499 523d
000001c0: f8b7 953c 900d e93d d236 e93d 5022 92bc
000001d0: ee39 ecbd 2064 b83c e0d1 4f3c 100a 003d
000001e0: 8075 c9bd d6d4 cf3d 4072 13bd 3c87 2bbd
000001f0: 6ef8 a63d 667c f63d d02f 3cbc 500f 3bbc
00000200: 8076 103c 34dd 2bbd 10d4 d53c dc57 403d
00000210: 6430 ac3d 1094 e1bc 68f7 d9bd 2088 b2bd
00000220: 58fd debc 0a82 d6bd 868f ed3d a42c a5bd
00000230: 5037 55bd 0060 3abb c68c bf3d f410 293d
00000240: 2ca3 99bd a8a1 fb3d 84db fc3d b69f b6bd
00000250: 6c51 0cbd 88c2 90bc 56bd e5bd d86b 9a3d
00000260: dc85 2d3d 5028 4b3d dcee e73d 104b 14bd
00000270: 38db 8f3d c0fe 4c3b a83c dabc c07b 983c
00000280: a44e 95bd 00d3 27bc e89d b0bd 248c e5bd
00000290: 4605 9b3d 4e59 aa3d e01d 42bd 7c67 24bd
000002a0: d2a0 babd 381b d73c 407e 55bb 80af 09bb
000002b0: acf1 c43d 609c ddbd c09f 1a3c 203d d03d
000002c0: 5a00 88bd ecac 923d fccc 683d f045 02bc
000002d0: 24f5 413d 8eec ff3d 00d5 513c f87c c6bc
000002e0: 5671 d2bd 40a4 53bc 44c1 183d f617 bdbd
000002f0: 38b1 0bbd 5046 6cbd 4806 24bd 343e 1e3d
00000300: c98d e63d 7a59 b5bd d5ab 3c3d 5818 b0ba
00000310: 366f bbbd 6484 f53d a9dd 3b3d c0f0 07be
00000320: 6aec dbbd 442e ac3c ae97 87bd 441d 9fbd
00000330: 620a d0bd 6a8d ebbd 90b0 adbd 02e6 b2bd
00000340: be5e e6bd 80aa edbb 28d8 a2bd dd0b d8bd
00000350: ff0c db3d d0ad aabc 53ef c3bc 25cd 8abd
00000360: 31c1 98bd a3f4 a2bc c045 82bd 4c08 70bd
00000370: 3c9b 18bd 11af 573b f909 81bd cebd fcbd
00000380: eeea eabd f449 4ebd a064 a33c 34dd e7bd
00000390: d93a f3bd 801a afba c67b babd 00e0 62ba
000003a0: df91 eb3d 460e 973d 10b5 ca3d 9a78 8e3d
000003b0: 4560 c1bc 228b d1bd 96a7 aebd 80a4 d93b
000003c0: d856 703d 00b8 f63b e584 29bd 0864 96bc
000003d0: 42ae 5f3d 9e24 db3d 906c 033c 30c9 543d
000003e0: 6f47 e7bc e199 f2bc 3862 5c3b 13fd b83c
000003f0: f1e9 c2bd a871 a13d 16d9 c9bd f0b7 4f3c
-0.0075555444 0.0061579347 0.06271435 0.0042930096 -0.10172923 0.024547279 0.030765355 -0.040684864
-0.014523715 -0.081878364 0.04726091 -0.025775999 -0.02003026 0.03556159 -0.12102868 0.079288945
-0.111885965 0.117929086 0.024429277 -0.0036129951 -0.121522635 0.063360944 -0.010800511 -0.04432717
-0.04915893 -0.12111467 -0.027827948 0.04162179 0.041549563 0.122662455 -0.077621445 0.12063199
0.121464536 -0.06024024 0.07427019 -0.0012896657 0.11509462 0.07621181 0.02657257 -0.09895633
-0.037864104 0.09846307 -0.040353373 0.030216858 0.07681553 -0.078860775 -0.008582979 -0.0040314496
0.0042719096 -0.07825065 -0.0031493306 -0.12031251 -0.027032048 -0.09167886 -0.120280564 0.10181947
-0.053156793 -0.039277077 0.08760424 -0.09824771 0.011713594 0.10537137 -0.07945795 0.10520013
0.005587369 0.039737105 0.04206164 0.11685461 0.018909857 0.017332658 -0.11508329 0.10040867
0.059156343 0.10145266 0.08206029 0.07544258 -0.119079605 0.056679368 -0.073069766 0.10034189
0.08212289 0.09532651 0.017049685 0.076048896 -0.09419641 -0.06471184 -0.100243226 0.03419827
-0.012823015 0.039579958 -0.100489214 0.105023965 0.009504378 -0.03554161 -0.100769654 -0.034739256
-0.12305172 -0.07154912 -0.11861996 0.02543804 0.0004479289 -0.035005555 0.04249671 0.11251865
0.057100832 0.09424272 0.05671245 -0.010874227 -0.053662136 0.061531544 -0.12483209 0.051415876
0.0182762 0.1137954 0.11387409 -0.017838627 -0.11534487 0.02250868 0.012684315 0.031259596
-0.098368645 0.10148017 -0.03599763 -0.041877016 0.08152853 0.12035446 -0.011486009 -0.011417225
0.008817315 -0.041959003 0.026102096 0.04695879 0.08407667 -0.027536422 -0.10642892 -0.0871737
-0.027220413 -0.10474022 0.115996405 -0.08065155 -0.052054703 -0.0028438568 0.09353022 0.041275933
-0.07501826 0.12286693 0.12346557 -0.08917181 -0.034257337 -0.017670885 -0.112177536 0.07540101
0.042363986 0.049598992 0.11324856 -0.036204398 0.070242345 0.0031279773 -0.026640251 0.018613696
-0.0729039 -0.010243177 -0.08623868 -0.1120837 0.07569365 0.08317815 -0.047391772 -0.040137753
-0.09112705 0.026258096 -0.0032576472 -0.0021009147 0.09616408 -0.10820842 0.009437501 0.10167909
-0.06640692 0.071618885 0.056836113 -0.007951245 0.047352925 0.12496291 0.012807131 -0.024229512
-0.10275523 -0.012917578 0.037293687 -0.09233086 -0.034104556 -0.057684243 -0.040045053 0.03863354
0.11257512 -0.08854957 0.04606231 -0.0013434989 -0.09152071 0.11988142 0.04586569 -0.13275433
-0.10738452 0.021018155 -0.066207275 -0.07769254 -0.1015823 -0.11501582 -0.08480942 -0.08735277
-0.112485394 -0.007252991 -0.07951385 -0.10549138 0.10695838 -0.020834833 -0.02391783 -0.067774095
-0.07458723 -0.019892043 -0.0636096 -0.058601663 -0.037257418 0.0032910744 -0.0630073 -0.1234089
-0.114705905 -0.050363496 0.019945443 -0.11321488 -0.11876459 -0.0013359338 -0.09105639 -0.00086545944
0.11502432 0.07375769 0.09897816 0.06956597 -0.023605475 -0.102316156 -0.08528058 0.0066419244
0.05867657 0.0075292587 -0.041386504 -0.018358245 0.054609545 0.107003435 0.008021489 0.05194968
-0.028232304 -0.02961439 0.003362788 0.022581613 -0.09517277 0.07883006 -0.09855859 0.012678131

fc2.bias f4 [32]
00000000: 5c19 79bd e053 02bc 9479 093d 481c acbd
00000010: da81 c1bd 9ad2 f6bd 10e1 893d 2240 cfbd
00000020: e819 853c 007d 2f3b 2643 e2bc 941f ae3d
00000030: bbc1 b93d c81f 8cbc 5ee0 f63d e103 8f3c
00000040: c899 bd3d 018c 1bbd 2e07 e03d da12 d4bd
00000050: b0de 4e3d 74be 76bd 0a30 d73d 76ca be3d
00000060: 7846 343d eedb 99bd 4235 803d 04c3 e73d
00000070: a4a5 643c 70a4 ab3c 748f d23d 4c6f c1bd
-0.0608152 -0.007954568 0.03356321 -0.08403832 -0.09448595 -0.12051888 0.067323804 -0.10119654
0.016247705 0.0026777387 -0.02761991 0.08502117 0.09070154 -0.017104998 0.120545134 0.017457904
0.09257847 -0.037975315 0.109388694 -0.10355158 0.05050534 -0.060240224 0.105072096 0.0931596
0.044012517 -0.075126514 0.06260158 0.11316493 0.013955507 0.020952433 0.10281268 -0.09445056

fc3.weight f4 [1, 32]
00000000: 63ed 96bd 0377 babb 9103 03be 5548 833d
00000010: abb5 2b3e fd2e 9d3d 49eb cbbd 100e 03be
00000020: 52aa 06be f65d eb3d d67a 4abd 21b6 ebbb
00000030: f33c 133e f54e 6bbd 5ade a03d bdda 7ebd
00000040: b8ac f7bc 4684 123c c4ed 8d3d 5e52 f63d
00000050: 1aad d4bb eb28 14be ee73 9ebd 38fe 773d
00000060: ab4b f7bd 56ac 083e 3db5 e23d 853e 2abe
00000070: fc05 093e aaab 0b3d f85e 2b3e d6e4 983d
-0.07369497 -0.005690457 -0.12794329 0.064102806 0.1676852 0.07674978 -0.099569865 -0.12798333
-0.1315091 0.11492531 -0.04943355 -0.0071933423 0.14378719 -0.057448346 0.0785491 -0.062220324
-0.030233726 0.008942669 0.06930116 0.12027429 -0.006490362 -0.14468734 -0.077369556 0.060545176
-0.120749794 0.13346991 0.11069725 -0.16625412 0.13381189 0.03409926 0.16735446 0.07465522
